The final model was selected as follows: 

Model: "sequential_5"
┏━━━━━━━━━━━━━━━━━━━━━━━━━━━━━━━━━━━━━━┳━━━━━━━━━━━━━━━━━━━━━━━━━━━━━┳━━━━━━━━━━━━━━━━━┓
┃ Layer (type)                         ┃ Output Shape                ┃         Param # ┃
┡━━━━━━━━━━━━━━━━━━━━━━━━━━━━━━━━━━━━━━╇━━━━━━━━━━━━━━━━━━━━━━━━━━━━━╇━━━━━━━━━━━━━━━━━┩
│ dense_20 (Dense)                     │ (None, 112)                 │          69,104 │
├──────────────────────────────────────┼─────────────────────────────┼─────────────────┤
│ dense_21 (Dense)                     │ (None, 96)                  │          10,848 │
├──────────────────────────────────────┼─────────────────────────────┼─────────────────┤
│ dense_22 (Dense)                     │ (None, 80)                  │           7,760 │
├──────────────────────────────────────┼─────────────────────────────┼─────────────────┤
│ dense_23 (Dense)                     │ (None, 64)                  │           5,184 │
├──────────────────────────────────────┼─────────────────────────────┼─────────────────┤
│ dense_24 (Dense)                     │ (None, 48)                  │           3,120 │
├──────────────────────────────────────┼─────────────────────────────┼─────────────────┤
│ dense_25 (Dense)                     │ (None, 32)                  │           1,568 │
├──────────────────────────────────────┼─────────────────────────────┼─────────────────┤
│ dense_26 (Dense)                     │ (None, 5)                   │             165 │
└──────────────────────────────────────┴─────────────────────────────┴─────────────────┘
 Total params: 293,249 (1.12 MB)
 Trainable params: 97,749 (381.83 KB)
 Non-trainable params: 0 (0.00 B)
 Optimizer params: 195,500 (763.68 KB)
None
14/14 ━━━━━━━━━━━━━━━━━━━━ 0s 528us/step - loss: 1.5975
HERE: 1.6022748947143555
Final Loss: 1.602111
90th percentile of input text lengths: 616

Number of features per sample: 616
…
14/14 ━━━━━━━━━━━━━━━━━━━━ 0s 453us/step - loss: 1.6028
14/14 ━━━━━━━━━━━━━━━━━━━━ 0s 477us/step - loss: 6.7603
14/14 ━━━━━━━━━━━━━━━━━━━━ 0s 404us/step - loss: 4.0422
14/14 ━━━━━━━━━━━━━━━━━━━━ 0s 448us/step - loss: 6.2141
14/14 ━━━━━━━━━━━━━━━━━━━━ 0s 415us/step - loss: 1.6063

The final model was selected as follows: 

Model: "sequential_13"
┏━━━━━━━━━━━━━━━━━━━━━━━━━━━━━━━━━━━━━━┳━━━━━━━━━━━━━━━━━━━━━━━━━━━━━┳━━━━━━━━━━━━━━━━━┓
┃ Layer (type)                         ┃ Output Shape                ┃         Param # ┃
┡━━━━━━━━━━━━━━━━━━━━━━━━━━━━━━━━━━━━━━╇━━━━━━━━━━━━━━━━━━━━━━━━━━━━━╇━━━━━━━━━━━━━━━━━┩
│ dense_88 (Dense)                     │ (None, 128)                 │          78,976 │
├──────────────────────────────────────┼─────────────────────────────┼─────────────────┤
│ dense_89 (Dense)                     │ (None, 112)                 │          14,448 │
├──────────────────────────────────────┼─────────────────────────────┼─────────────────┤
│ dense_90 (Dense)                     │ (None, 96)                  │          10,848 │
├──────────────────────────────────────┼─────────────────────────────┼─────────────────┤
│ dense_91 (Dense)                     │ (None, 80)                  │           7,760 │
├──────────────────────────────────────┼─────────────────────────────┼─────────────────┤
│ dense_92 (Dense)                     │ (None, 64)                  │           5,184 │
├──────────────────────────────────────┼─────────────────────────────┼─────────────────┤
│ dense_93 (Dense)                     │ (None, 48)                  │           3,120 │
├──────────────────────────────────────┼─────────────────────────────┼─────────────────┤
│ dense_94 (Dense)                     │ (None, 32)                  │           1,568 │
├──────────────────────────────────────┼─────────────────────────────┼─────────────────┤
│ dense_95 (Dense)                     │ (None, 5)                   │             165 │
└──────────────────────────────────────┴─────────────────────────────┴─────────────────┘
 Total params: 366,209 (1.40 MB)
 Trainable params: 122,069 (476.83 KB)
 Non-trainable params: 0 (0.00 B)
 Optimizer params: 244,140 (953.68 KB)
None
14/14 ━━━━━━━━━━━━━━━━━━━━ 0s 407us/step - loss: 1.6063
HERE: 1.6006900072097778
Final Loss: 1.600690
90th percentile of input text lengths: 616

Number of features per sample: 616
…
